…
),\n    tf.keras.layers.Dropout(rate=0.3),    \n    tf.keras.layers.Dense(100, kernel_initializer=tf.keras.initializers.HeNormal),\n    tf.keras.layers.BatchNormalization(),\n    tf.keras.layers.Activation(\"swish\"),\n    tf.keras.layers.Dropout(rate=0.3),    \n    tf.keras.layers.Dense(10, activation=\"softmax\")\n])\n\n\nmodel.summary()\n\nModel: \"sequential_1\"\n_________________________________________________________________\n Layer (type)                Output Shape              Param #   \n=================================================================\n flatten_1 (Flatten)         (None, 784)               0         \n                                                                 \n dense_3 (Dense)             (None, 300)               235500    \n                                                                 \n batch_normalization (BatchN  (None, 300)              1200      \n ormalization)                                                   \n                                                                 \n activation (Activation)     (None, 300)               0         \n                                                                 \n dropout (Dropout)           (None, 300)               0         \n                                                                 \n dense_4 (Dense)             (None, 100)               30100     \n                                                                 \n batch_normalization_1 (Batc  (None, 100)              400       \n hNormalization)                                                 \n                                                                 \n activation_1 (Activation)   (None, 100)               0         \n                                                                 \n dropout_1 (Dropout)         (None, 100)               0         \n                                                                 \n dense_5 (Dense)             (None, 10)                1010      \n                                                                 \n=================================================================\nTotal params: 268,210\nTrainable params: 267,410\nNon-trainable params: 800\n_________________________________________________________________\n\n\n\nlr_scheduler = tf.keras.callbacks.ReduceLROnPlateau(factor=0.5, patience=5)\noptimizer = tf.keras.optimizers
…
, or computational load.\nNext is the fully connected network, composed of 1 hidden dense layers and a dense output layer. Note that we must flatten its inputs, since a dense network expects a 1D array of features for each instance. We also add two dropout layers, with a dropout rate of 50% each, to reduce overfitting.\n\n\nmodel.summary()\n\nModel: \"sequential_4\"\n_________________________________________________________________\n Layer (type)                Output Shape              Param #   \n=================================================================\n conv2d_23 (Conv2D)          (None, 28, 28, 32)        1600      \n                                                                 \n max_pooling2d_13 (MaxPoolin  (None, 14, 14, 32)       0         \n g2D)                                                            \n                                                                 \n conv2d_24 (Conv2D)          (None, 14, 14, 64)        18496     \n                                                                 \n conv2d_25 (Conv2D)          (None, 14, 14, 64)        36928     \n                                                                 \n max_pooling2d_14 (MaxPoolin  (None, 7, 7, 64)         0         \n g2D)                                                            \n                                                                 \n conv2d_26 (Conv2D)          (None, 7, 7, 128)         73856     \n                                                                 \n conv2d_27 (Conv2D)          (None, 7, 7, 128)         147584    \n                                                                 \n max_pooling2d_15 (MaxPoolin  (None, 3, 3, 128)        0         \n g2D)                                                            \n                                                                 \n flatten_4 (Flatten)         (None, 1152)              0         \n                                                                 \n dense_10 (Dense)            (None, 64)                73792     \n                                                                 \n dropout_6 (Dropout)         (None, 64)                0         \n                                                                 \n dense_11 (Dense)            (None, 32)                2080      \n                                                                 \n dropout_7 (Dropout)         (None, 32)                0         \n                                                                 \n dense_12 (Dense)            (None, 10)                330       \n                                                                 \n=================================================================\nTotal params: 354,666\nTrainable params: 354,666\nNon-trainable params: 0\n_________________________________________________________________\n\n\n\nmodel.compile(loss=\"sparse_categorical_crossentropy\", optimizer=\"nadam\", metrics=[\"accuracy\"])\nhistory
…
, kernel_size=3, activation=\"relu\")(x)\nx = tf.keras.layers.Flatten()(x)\noutputs = tf.keras.layers.Dense(1, activation=\"sigmoid\")(x)\nmodel = tf.keras.Model(inputs=inputs, outputs=outputs)\n\n\nmodel.summary()\n\nModel: \"model\"\n_________________________________________________________________\n Layer (type)                Output Shape              Param #   \n=================================================================\n input_1 (InputLayer)        [(None, 180, 180, 3)]     0         \n                                                                 \n rescaling_1 (Rescaling)     (None, 180, 180, 3)       0         \n                                                                 \n conv2d_28 (Conv2D)          (None, 178, 178, 32)      896       \n                                                                 \n max_pooling2d_16 (MaxPoolin  (None, 89, 89, 32)       0         \n g2D)                                                            \n                                                                 \n conv2d_29 (Conv2D)          (None, 87, 87, 64)        18496     \n                                                                 \n max_pooling2d_17 (MaxPoolin  (None, 43, 43, 64)       0         \n g2D)                                                            \n                                                                 \n conv2d_30 (Conv2D)          (None, 41, 41, 128)       73856     \n                                                                 \n max_pooling2d_18 (MaxPoolin  (None, 20, 20, 128)      0         \n g2D)                                                            \n                                                                 \n conv2d_31 (Conv2D)          (None, 18, 18, 256)       295168    \n                                                                 \n max_pooling2d_19 (MaxPoolin  (None, 9, 9, 256)        0         \n g2D)                                                            \n                                                                 \n conv2d_32 (Conv2D)          (None, 7, 7, 256)         590080    \n                                                                 \n flatten_5 (Flatten)         (None, 12544)             0         \n                                                                 \n dense_13 (Dense)            (None, 1)                 12545     \n                                                                 \n=================================================================\nTotal params: 991,041\nTrainable params: 991,041\nNon-trainable params: 0\n_________________________________________________________________\n\n\n\n# For the compilation step, we’ll go with the nadam optimizer. Because we\n# ended the model with a single sigm
…
e summary ends with the total number of parameters, including trainable and non-trainable parameters. Here we only have trainable parameters. Since we have not specified the shape of input in the model definition, you should specify the input shape.\n\nsummary(model, input_size=(32, 1, 28, 28))\n\n==========================================================================================\nLayer (type:depth-idx)                   Output Shape              Param #\n==========================================================================================\nSequential                               [32, 10]                  --\n├─Flatten: 1-1                           [32, 784]                 --\n├─Linear: 1-2                            [32, 300]                 235,500\n├─ReLU: 1-3                              [32, 300]                 --\n├─Linear: 1-4                            [32, 100]                 30,100\n├─ReLU: 1-5                              [32, 100]                 --\n├─Linear: 1-6                            [32, 10]                  1,010\n==========================================================================================\nTotal params: 266,610\nTrainable params: 266,610\nNon-trainable params: 0\nTotal mult-adds (M): 8.53\n==========================================================================================\nInput size (MB): 0.10\nForward/backward pass size (MB): 0.10\nParams size (MB): 1.07\nEstimated Total Size (MB):
…
d. It will be removed in the future and UntypedStorage will be the only storage class. This should only matter to you if you are using storages directly.  To access UntypedStorage directly, use tensor.untyped_storage() instead of tensor.storage()\n  return super().__sizeof__() + self.nbytes()\n\n\n==========================================================================================\nLayer (type:depth-idx)                   Output Shape              Param #\n==========================================================================================\nSequential                               [32, 10]                  --\n├─Flatten: 1-1                           [32, 784]                 --\n├─Linear: 1-2                            [32, 300]                 235,500\n├─BatchNorm1d: 1-3                       [32, 300]                 600\n├─PReLU: 1-4                             [32, 300]                 300\n├─Dropout: 1-5                           [32, 300]                 --\n├─Linear: 1-6                            [32, 100]                 30,100\n├─BatchNorm1d: 1-7                       [32, 100]                 200\n├─PReLU: 1-8                             [32, 100]                 100\n├─Dropout: 1-9                           [32, 100]                 --\n├─Linear: 1-10                           [32, 10]                  1,010\n├─LogSoftmax: 1-11                       [32, 10]                  --\n==========================================================================================\nTotal params: 267,810\nTrainable params: 267,810\nNon-trainable params: 0\nTotal mult-adds (M): 8.57\n==========================================================================================\nInput size (MB): 0.10\nForward/backward pass size (MB): 0.31\nParams size (MB): 1.07\nEstimated Total Size (MB):
…
5),\n    torch.nn.Linear(32, 10)\n)\n\n\n# Use He initialization for the convolutional layers and the linear layer\nfor m in model.modules():\n    if isinstance(m, nn.Conv2d) or isinstance(m, nn.Linear):\n        nn.init.kaiming_uniform_(m.weight)\n\n\nsummary(model, input_size=(32, 1, 28, 28))\n\n==========================================================================================\nLayer (type:depth-idx)                   Output Shape              Param #\n==========================================================================================\nSequential                               [32, 10]                  --\n├─Conv2d: 1-1                            [32, 32, 28, 28]          1,600\n├─ReLU: 1-2                              [32, 32, 28, 28]          --\n├─MaxPool2d: 1-3                         [32, 32, 14, 14]          --\n├─Conv2d: 1-4                            [32, 64, 14, 14]          18,496\n├─ReLU: 1-5                              [32, 64, 14, 14]          --\n├─Conv2d: 1-6                            [32, 64, 14, 14]          36,928\n├─ReLU: 1-7                              [32, 64, 14, 14]          --\n├─MaxPool2d: 1-8                         [32, 64, 7, 7]            --\n├─Conv2d: 1-9                            [32, 128, 7, 7]           73,856\n├─ReLU: 1-10                             [32, 128, 7, 7]           --\n├─Conv2d: 1-11                           [32, 128, 7, 7]           147,584\n├─ReLU: 1-12                             [32, 128, 7, 7]           --\n├─MaxPool2d: 1-13                        [32, 128, 3, 3]           --\n├─Flatten: 1-14                          [32, 1152]                --\n├─Linear: 1-15                           [32, 64]                  73,792\n├─ReLU: 1-16                             [32, 64]                  --\n├─Dropout: 1-17                          [32, 64]                  --\n├─Linear: 1-18                           [32, 32]                  2,080\n├─ReLU: 1-19                             [32, 32]                  --\n├─Dropout: 1-20                          [32, 32]                  --\n├─Linear: 1-21                           [32, 10]                  330\n==========================================================================================\nTotal params: 354,666\nTrainable params: 354,666\nNon-trainable params: 0\nTotal mult-adds (M): 737.42\n==========================================================================================\nInput size (MB): 0.10\nForward/backward pass size (MB): 16.08\nParams size (MB): 1.42\nEstimated Total Size (M
…
d. It will be removed in the future and UntypedStorage will be the only storage class. This should only matter to you if you are using storages directly.  To access UntypedStorage directly, use tensor.untyped_storage() instead of tensor.storage()\n  return super().__sizeof__() + self.nbytes()\n\n\n==========================================================================================\nLayer (type:depth-idx)                   Output Shape              Param #\n==========================================================================================\nCustomModel                              [32, 1]                   --\n├─Sequential: 1-1                        [32, 32, 89, 89]          --\n│    └─Conv2d: 2-1                       [32, 32, 178, 178]        896\n│    └─ReLU: 2-2                         [32, 32, 178, 178]        --\n│    └─MaxPool2d: 2-3                    [32, 32, 89, 89]          --\n├─Sequential: 1-2                        [32, 64, 43, 43]          --\n│    └─Conv2d: 2-4                       [32, 64, 87, 87]          18,496\n│    └─ReLU: 2-5                         [32, 64, 87, 87]          --\n│    └─MaxPool2d: 2-6                    [32, 64, 43, 43]          --\n├─Sequential: 1-3                        [32, 128, 20, 20]         --\n│    └─Conv2d: 2-7                       [32, 128, 41, 41]         73,856\n│    └─ReLU: 2-8                         [32, 128, 41, 41]         --\n│    └─MaxPool2d: 2-9                    [32, 128, 20, 20]         --\n├─Sequential: 1-4                        [32, 256, 9, 9]           --\n│    └─Conv2d: 2-10                      [32, 256, 18, 18]         295,168\n│    └─ReLU: 2-11                        [32, 256, 18, 18]         --\n│    └─MaxPool2d: 2-12                   [32, 256, 9, 9]           --\n├─Sequential: 1-5                        [32, 256, 7, 7]           --\n│    └─Conv2d: 2-13                      [32, 256, 7, 7]           590,080\n│    └─ReLU: 2-14                        [32, 256, 7, 7]           --\n├─Flatten: 1-6                           [32, 12544]               --\n├─Sequential: 1-7                        [32, 1]                   --\n│    └─Linear: 2-15                      [32, 1]                   12,545\n│    └─Sigmoid: 2-16                     [32, 1]                   --\n==========================================================================================\nTotal params: 991,041\nTrainable params: 991,041\nNon-trainable params: 0\nTotal mult-adds (G): 13.35\n==========================================================================================\nInput size (MB): 12.44\nForward/backward pass size (MB): 463.09\nParams size (MB): 3.96\nEstimated Total Size (
…
