…
),\n    tf.keras.layers.Dropout(rate=0.3),    \n    tf.keras.layers.Dense(100, kernel_initializer=tf.keras.initializers.HeNormal),\n    tf.keras.layers.BatchNormalization(),\n    tf.keras.layers.Activation(\"swish\"),\n    tf.keras.layers.Dropout(rate=0.3),    \n    tf.keras.layers.Dense(10, activation=\"softmax\")\n])\n\n\nmodel.summary()\n\nModel: \"sequential_1\"\n_________________________________________________________________\n Layer (type)                Output Shape              Param #   \n=================================================================\n flatten_1 (Flatten)         (None, 784)               0         \n                                                                 \n dense_3 (Dense)             (None, 300)               235500    \n                                                                 \n batch_normalization (BatchN  (None, 300)              1200      \n ormalization)                                                   \n                                                                 \n activation (Activation)     (None, 300)               0         \n                                                                 \n dropout (Dropout)           (None, 300)               0         \n                                                                 \n dense_4 (Dense)             (None, 100)               30100     \n                                                                 \n batch_normalization_1 (Batc  (None, 100)              400       \n hNormalization)                                                 \n                                                                 \n activation_1 (Activation)   (None, 100)               0         \n                                                                 \n dropout_1 (Dropout)         (None, 100)               0         \n                                                                 \n dense_5 (Dense)             (None, 10)                1010      \n                                                                 \n=================================================================\nTotal params: 268,210\nTrainable params: 267,410\nNon-trainable params: 800\n_________________________________________________________________\n\n\n\nlr_scheduler = tf.keras.callbacks.ReduceLROnPlateau(factor=0.5, patience=5)\noptimizer = tf.keras.optimizers
…
, or computational load.\nNext is the fully connected network, composed of 1 hidden dense layers and a dense output layer. Note that we must flatten its inputs, since a dense network expects a 1D array of features for each instance. We also add two dropout layers, with a dropout rate of 50% each, to reduce overfitting.\n\n\nmodel.summary()\n\nModel: \"sequential_4\"\n_________________________________________________________________\n Layer (type)                Output Shape              Param #   \n=================================================================\n conv2d_23 (Conv2D)          (None, 28, 28, 32)        1600      \n                                                                 \n max_pooling2d_13 (MaxPoolin  (None, 14, 14, 32)       0         \n g2D)                                                            \n                                                                 \n conv2d_24 (Conv2D)          (None, 14, 14, 64)        18496     \n                                                                 \n conv2d_25 (Conv2D)          (None, 14, 14, 64)        36928     \n                                                                 \n max_pooling2d_14 (MaxPoolin  (None, 7, 7, 64)         0         \n g2D)                                                            \n                                                                 \n conv2d_26 (Conv2D)          (None, 7, 7, 128)         73856     \n                                                                 \n conv2d_27 (Conv2D)          (None, 7, 7, 128)         147584    \n                                                                 \n max_pooling2d_15 (MaxPoolin  (None, 3, 3, 128)        0         \n g2D)                                                            \n                                                                 \n flatten_4 (Flatten)         (None, 1152)              0         \n                                                                 \n dense_10 (Dense)            (None, 64)                73792     \n                                                                 \n dropout_6 (Dropout)         (None, 64)                0         \n                                                                 \n dense_11 (Dense)            (None, 32)                2080      \n                                                                 \n dropout_7 (Dropout)         (None, 32)                0         \n                                                                 \n dense_12 (Dense)            (None, 10)                330       \n                                                                 \n=================================================================\nTotal params: 354,666\nTrainable params: 354,666\nNon-trainable params: 0\n_________________________________________________________________\n\n\n\nmodel.compile(loss=\"sparse_categorical_crossentropy\", optimizer=\"nadam\", metrics=[\"accuracy\"])\nhistory
…
, kernel_size=3, activation=\"relu\")(x)\nx = tf.keras.layers.Flatten()(x)\noutputs = tf.keras.layers.Dense(1, activation=\"sigmoid\")(x)\nmodel = tf.keras.Model(inputs=inputs, outputs=outputs)\n\n\nmodel.summary()\n\nModel: \"model\"\n_________________________________________________________________\n Layer (type)                Output Shape              Param #   \n=================================================================\n input_1 (InputLayer)        [(None, 180, 180, 3)]     0         \n                                                                 \n rescaling_1 (Rescaling)     (None, 180, 180, 3)       0         \n                                                                 \n conv2d_28 (Conv2D)          (None, 178, 178, 32)      896       \n                                                                 \n max_pooling2d_16 (MaxPoolin  (None, 89, 89, 32)       0         \n g2D)                                                            \n                                                                 \n conv2d_29 (Conv2D)          (None, 87, 87, 64)        18496     \n                                                                 \n max_pooling2d_17 (MaxPoolin  (None, 43, 43, 64)       0         \n g2D)                                                            \n                                                                 \n conv2d_30 (Conv2D)          (None, 41, 41, 128)       73856     \n                                                                 \n max_pooling2d_18 (MaxPoolin  (None, 20, 20, 128)      0         \n g2D)                                                            \n                                                                 \n conv2d_31 (Conv2D)          (None, 18, 18, 256)       295168    \n                                                                 \n max_pooling2d_19 (MaxPoolin  (None, 9, 9, 256)        0         \n g2D)                                                            \n                                                                 \n conv2d_32 (Conv2D)          (None, 7, 7, 256)         590080    \n                                                                 \n flatten_5 (Flatten)         (None, 12544)             0         \n                                                                 \n dense_13 (Dense)            (None, 1)                 12545     \n                                                                 \n=================================================================\nTotal params: 991,041\nTrainable params: 991,041\nNon-trainable params: 0\n_________________________________________________________________\n\n\n\n# For the compilation step, we’ll go with the nadam optimizer. Because we\n# ended the model with a single sigm
…
able to process inputs of any size. Here we pass it so that we can visualize (in the following summary) how the size of the feature maps shrinks with each new convolution and pooling layer.\n\n\nconv_base.summary()\n\nModel: \"vgg16\"\n_________________________________________________________________\n Layer (type)                Output Shape              Param #   \n=================================================================\n input_1 (InputLayer)        [(None, 180, 180, 3)]     0         \n                                                                 \n block1_conv1 (Conv2D)       (None, 180, 180, 64)      1792      \n                                                                 \n block1_conv2 (Conv2D)       (None, 180, 180, 64)      36928     \n                                                                 \n block1_pool (MaxPooling2D)  (None, 90, 90, 64)        0         \n                                                                 \n block2_conv1 (Conv2D)       (None, 90, 90, 128)       73856     \n                                                                 \n block2_conv2 (Conv2D)       (None, 90, 90, 128)       147584    \n                                                                 \n block2_pool (MaxPooling2D)  (None, 45, 45, 128)       0         \n                                                                 \n block3_conv1 (Conv2D)       (None, 45, 45, 256)       295168    \n                                                                 \n block3_conv2 (Conv2D)       (None, 45, 45, 256)       590080    \n                                                                 \n block3_conv3 (Conv2D)       (None, 45, 45, 256)       590080    \n                                                                 \n block3_pool (MaxPooling2D)  (None, 22, 22, 256)       0         \n                                                                 \n block4_conv1 (Conv2D)       (None, 22, 22, 512)       1180160   \n                                                                 \n block4_conv2 (Conv2D)       (None, 22, 22, 512)       2359808   \n                                                                 \n block4_conv3 (Conv2D)       (None, 22, 22, 512)       2359808   \n                                                                 \n block4_pool (MaxPooling2D)  (None, 11, 11, 512)       0         \n                                                                 \n block5_conv1 (Conv2D)       (None, 11, 11, 512)       2359808   \n                                                                 \n block5_conv2 (Conv2D)       (None, 11, 11, 512)       2359808   \n                                                                 \n block5_conv3 (Conv2D)       (None, 11, 11, 512)       2359808   \n                                                                 \n block5_pool (MaxPooling2D)  (None, 5, 5, 512)         0         \n                                                                 \n=================================================================\nTotal params: 14,714,688\nTrainable params: 14,714,688\nNon-trainable params: 0\n_________________________________________________________________\n\n\nThe final feature map has shape (5, 5, 512). That’s the feature map on top of which we’ll stick a dense
…
se(1, activation=\"sigmoid\")(x)\nmodel = tf.keras.Model(inputs, outputs)\nmodel.summary()\n\nmodel.compile(loss=\"binary_crossentropy\",\n              optimizer=\"rmsprop\",\n              metrics=[\"accuracy\"])\n\nModel: \"model\"\n_________________________________________________________________\n Layer (type)                Output Shape              Param #   \n=================================================================\n input_1 (InputLayer)        [(None, 180, 180, 3)]     0         \n                                                                 \n sequential (Sequential)     (None, 180, 180, 3)       0         \n                                                                 \n tf.__operators__.getitem (S  (None, 180, 180, 3)      0         \n licingOpLambda)                                                 \n                                                                 \n tf.nn.bias_add (TFOpLambda)  (None, 180, 180, 3)      0         \n                                                                 \n vgg16 (Functional)          (None, None, None, 512)   14714688  \n                                                                 \n flatten (Flatten)           (None, 12800)             0         \n                                                                 \n dense (Dense)               (None, 256)               3277056   \n                                                                 \n dropout (Dropout)           (None, 256)               0         \n                                                                 \n dense_1 (Dense)             (None, 1)                 257       \n                                                                 \n=================================================================\nTotal params: 17,992,001\nTrainable params: 3,277,313\nNon-trainable params: 14,714,688\n_________________________________________________________________\n\n\nWith this setup, only the weights from the two Dense layers that we added will be trained. That’s
…
 tb_logdir=log_dir,\n)\n\nmcp = tf.keras.callbacks.ModelCheckpoint(\n    filepath=chkpt_dir,\n    monitor=\"val_loss\",\n    mode=\"min\",\n    save_best_only=True,\n    save_weights_only=True,\n)\n\n[Backbone]\nModel: \"resnet18sim\"\n_________________________________________________________________\n Layer (type)                Output Shape              Param #   \n=================================================================\n input_1 (InputLayer)        [(None, 32, 32, 3)]       0         \n                                                                 \n resnet18 (Functional)       (None, 4, 4, 512)         11182784  \n                                                                 \n avg_pool (GlobalAveragePool  (None, 512)              0         \n ing2D)                                                          \n                                                                 \n=================================================================\nTotal params: 11,182,784\nTrainable params: 11,173,056\nNon-trainable params: 9,728\n_________________________________________________________________\n\n[Projector]\nModel: \"projector\"\n_________________________________________________________________\n Layer (type)                Output Shape              Param #   \n=================================================================\n projector_input (InputLayer  [(None, 512)]            0         \n )                                                               \n                                                                 \n projector_layer_0 (Dense)   (None, 512)               262144    \n                                                                 \n batch_normalization_0 (Batc  (None, 512)              2048      \n hNormalization)                                                 \n                                                                 \n relu_activation_0 (Activati  (None, 512)              0         \n on)                                                             \n                                                                 \n projector_output (Dense)    (None, 512)               262144    \n                                                                 \n batch_normalization_ouput (  (None, 512)              1024      \n BatchNormalization)                                             \n                                                                 \n proj_std (ActivationStdLogg  (None, 512)              0         \n ingLayer)                                                       \n                                                                 \n=================================================================\nTotal params: 527,360\nTrainable params: 525,312\nNon-trainable params: 2,048\n_________________________________________________________________\n\n[Predictor]\nModel: \"projector\"\n_________________________________________________________________\n Layer (type)                Output Shape              Param #   \n=================================================================\n projector_input (InputLayer  [(None, 512)]            0         \n )                                                               \n                                                                 \n projector_layer_0 (Dense)   (None, 512)               262144    \n                                                                 \n batch_normalization_0 (Batc  (None, 512)              2048      \n hNormalization)                                                 \n                                                                 \n relu_activation_0 (Activati  (None, 512)              0         \n on)                                                             \n                                                                 \n projector_output (Dense)    (None, 512)               262144    \n                                                                 \n batch_normalization_ouput (  (None, 512)              1024      \n BatchNormalization)                                             \n                                                                 \n proj_std (ActivationStdLogg  (None, 512)              0         \n ingLayer)                                                       \n                                                                 \n=================================================================\nTotal params: 527,360\nTrainable params: 525,312\nNon-trainable params: 2,048\n_________________________________________________________________\nTensorBoard logging enable in tfsim_contra
…
ar, codings])\n\nvariational_encoder.summary()\n\nModel: \"model\"\n__________________________________________________________________________________________________\n Layer (type)                   Output Shape         Param #     Connected to                     \n==================================================================================================\n input_1 (InputLayer)           [(None, 28, 28)]     0           []                               \n                                                                                                  \n flatten (Flatten)              (None, 784)          0           ['input_1[0][0]']                \n                                                                                                  \n dense (Dense)                  (None, 150)          117750      ['flatten[0][0]']                \n                                                                                                  \n dense_1 (Dense)                (None, 100)          15100       ['dense[0][0]']                  \n                                                                                                  \n dense_2 (Dense)                (None, 10)           1010        ['dense_1[0][0]']                \n                                                                                                  \n dense_3 (Dense)                (None, 10)           1010        ['dense_1[0][0]']                \n                                                                                                  \n sampling (Sampling)            (None, 10)           0           ['dense_2[0][0]',                \n                                                                  'dense_3[0][0]']                \n                                                                                                  \n==================================================================================================\nTotal params: 134,870\nTrainable params: 134,870\nNon-
…
utput Shape         Param #     Connected to                     \n==================================================================================================\n X_noisy (InputLayer)           [(None, 28, 28, 1)]  0           []                               \n                                                                                                  \n time (InputLayer)              [(None,)]            0           []                               \n                                                                                                  \n zero_padding2d (ZeroPadding2D)  (None, 34, 34, 1)   0           ['X_noisy[0][0]']                \n                                                                                                  \n time_encoding (TimeEncoding)   (None, 64)           0           ['time[0][0]']                   \n                                                                                                  \n conv2d (Conv2D)                (None, 32, 32, 16)   160         ['zero_padding2d[0][0]']         \n                                                                                                  \n dense (Dense)                  (None, 16)           1040        ['time_encoding[0][0]']          \n                                                                                                  \n batch_normalization (BatchNorm  (None, 32, 32, 16)  64          ['conv2d[0][0]']                 \n alization)                                                                                       \n                                                                                                  \n tf.__operators__.getitem (Slic  (None, 1, 1, 16)    0           ['dense[0][0]']                  \n ingOpLambda)                                                                                     \n                                                                                                  \n activation (Activation)        (None, 32, 32, 16)   0           ['batch_normalization[0][0]']    \n                                                                                                  \n tf.__operators__.add (TFOpLamb  (None, 32, 32, 16)  0           ['tf.__operators__.getitem[0][0]'\n da)                                                             , 'activation[0][0]']            \n                                                                                                  \n activation_1 (Activation)      (None, 32, 32, 16)   0           ['tf.__operators__.add[0][0]']   \n                                                                                                  \n separable_conv2d (SeparableCon  (None, 32, 32, 32)  688         ['activation_1[0][0]']           \n v2D)                                                                                             \n                                                                                                  \n batch_normalization_1 (BatchNo  (None, 32, 32, 32)  128         ['separable_conv2d[0][0]']       \n rmalization)                                                                                     \n                                                                                                  \n activation_2 (Activation)      (None, 32, 32, 32)   0           ['batch_normalization_1[0][0]']  \n                                                                                                  \n separable_conv2d_1 (SeparableC  (None, 32, 32, 32)  1344        ['activation_2[0][0]']           \n onv2D)                                                                                           \n                                                                                                  \n batch_normalization_2 (BatchNo  (None, 32, 32, 32)  128         ['separable_conv2d_1[0][0]']     \n rmalization)                                                                                     \n                                                                                                  \n dense_1 (Dense)                (None, 32)           2080        ['time_encoding[0][0]']          \n                                                                                                  \n max_pooling2d (MaxPooling2D)   (None, 16, 16, 32)   0           ['batch_normalization_2[0][0]']  \n                                                                                                  \n conv2d_1 (Conv2D)              (None, 16, 16, 32)   544         ['tf.__operators__.add[0][0]']   \n                                                                                                  \n tf.__operators__.getitem_1 (Sl  (None, 1, 1, 32)    0           ['dense_1[0][0]']                \n icingOpLambda)                                                                                   \n                                                                                                  \n add (Add)                      (None, 16, 16, 32)   0           ['max_pooling2d[0][0]',          \n                                                                  'conv2d_1[0][0]']               \n                                                                                                  \n tf.__operators__.add_1 (TFOpLa  (None, 16, 16, 32)  0           ['tf.__operators__.getitem_1[0][0\n mbda)                                                           ]',                              \n                                                                  'add[0][0]']                    \n                                                                                                  \n activation_3 (Activation)      (None, 16, 16, 32)   0           ['tf.__operators__.add_1[0][0]'] \n                                                                                                  \n separable_conv2d_2 (SeparableC  (None, 16, 16, 64)  2400        ['activation_3[0][0]']           \n onv2D)                                                                                           \n                                                                                                  \n batch_normalization_3 (BatchNo  (None, 16, 16, 64)  256         ['separable_conv2d_2[0][0]']     \n rmalization)                                                                                     \n                                                                                                  \n activation_4 (Activation)      (None, 16, 16, 64)   0           ['batch_normalization_3[0][0]']  \n                                                                                                  \n separable_conv2d_3 (SeparableC  (None, 16, 16, 64)  4736        ['activation_4[0][0]']           \n onv2D)                                                                                           \n                                                                                                  \n batch_normalization_4 (BatchNo  (None, 16, 16, 64)  256         ['separable_conv2d_3[0][0]']     \n rmalization)                                                                                     \n                                                                                                  \n dense_2 (Dense)                (None, 64)           4160        ['time_encoding[0][0]']          \n                                                                                                  \n max_pooling2d_1 (MaxPooling2D)  (None, 8, 8, 64)    0           ['batch_normalization_4[0][0]']  \n                                                                                                  \n conv2d_2 (Conv2D)              (None, 8, 8, 64)     2112        ['tf.__operators__.add_1[0][0]'] \n                                                                                                  \n tf.__operators__.getitem_2 (Sl  (None, 1, 1, 64)    0           ['dense_2[0][0]']                \n icingOpLambda)                                                                                   \n                                                                                                  \n add_1 (Add)                    (None, 8, 8, 64)     0           ['max_pooling2d_1[0][0]',        \n                                                                  'conv2d_2[0][0]']               \n                                                                                                  \n tf.__operators__.add_2 (TFOpLa  (None, 8, 8, 64)    0           ['tf.__operators__.getitem_2[0][0\n mbda)                                                           ]',                              \n                                                                  'add_1[0][0]']                  \n                                                                                                  \n activation_5 (Activation)      (None, 8, 8, 64)     0           ['tf.__operators__.add_2[0][0]'] \n                                                                                                  \n separable_conv2d_4 (SeparableC  (None, 8, 8, 128)   8896        ['activation_5[0][0]']           \n onv2D)                                                                                           \n                                                                                                  \n batch_normalization_5 (BatchNo  (None, 8, 8, 128)   512         ['separable_conv2d_4[0][0]']     \n rmalization)                                                                                     \n                                                                                                  \n activation_6 (Activation)      (None, 8, 8, 128)    0           ['batch_normalization_5[0][0]']  \n                                                                                                  \n separable_conv2d_5 (SeparableC  (None, 8, 8, 128)   17664       ['activation_6[0][0]']           \n onv2D)                                                                                           \n                                                                                                  \n batch_normalization_6 (BatchNo  (None, 8, 8, 128)   512         ['separable_conv2d_5[0][0]']     \n rmalization)                                                                                     \n                                                                                                  \n dense_3 (Dense)                (None, 128)          8320        ['time_encoding[0][0]']          \n                                                                                                  \n max_pooling2d_2 (MaxPooling2D)  (None, 4, 4, 128)   0           ['batch_normalization_6[0][0]']  \n                                                                                                  \n conv2d_3 (Conv2D)              (None, 4, 4, 128)    8320        ['tf.__operators__.add_2[0][0]'] \n                                                                                                  \n tf.__operators__.getitem_3 (Sl  (None, 1, 1, 128)   0           ['dense_3[0][0]']                \n icingOpLambda)                                                                                   \n                                                                                                  \n add_2 (Add)                    (None, 4, 4, 128)    0           ['max_pooling2d_2[0][0]',        \n                                                                  'conv2d_3[0][0]']               \n                                                                                                  \n tf.__operators__.add_3 (TFOpLa  (None, 4, 4, 128)   0           ['tf.__operators__.getitem_3[0][0\n mbda)                                                           ]',                              \n                                                                  'add_2[0][0]']                  \n                                                                                                  \n activation_7 (Activation)      (None, 4, 4, 128)    0           ['tf.__operators__.add_3[0][0]'] \n                                                                                                  \n conv2d_transpose (Conv2DTransp  (None, 4, 4, 64)    73792       ['activation_7[0][0]']           \n ose)                                                                                             \n                                                                                                  \n batch_normalization_7 (BatchNo  (None, 4, 4, 64)    256         ['conv2d_transpose[0][0]']       \n rmalization)                                                                                     \n                                                                                                  \n activation_8 (Activation)      (None, 4, 4, 64)     0           ['batch_normalization_7[0][0]']  \n                                                                                                  \n conv2d_transpose_1 (Conv2DTran  (None, 4, 4, 64)    36928       ['activation_8[0][0]']           \n spose)                                                                                           \n                                                                                                  \n batch_normalization_8 (BatchNo  (None, 4, 4, 64)    256         ['conv2d_transpose_1[0][0]']     \n rmalization)                                                                                     \n                                                                                                  \n up_sampling2d_1 (UpSampling2D)  (None, 8, 8, 128)   0           ['tf.__operators__.add_3[0][0]'] \n                                                                                                  \n dense_4 (Dense)                (None, 64)           4160        ['time_encoding[0][0]']          \n                                                                                                  \n up_sampling2d (UpSampling2D)   (None, 8, 8, 64)     0           ['batch_normalization_8[0][0]']  \n                                                                                                  \n conv2d_4 (Conv2D)              (None, 8, 8, 64)     8256        ['up_sampling2d_1[0][0]']        \n                                                                                                  \n tf.__operators__.getitem_4 (Sl  (None, 1, 1, 64)    0           ['dense_4[0][0]']                \n icingOpLambda)                                                                                   \n                                                                                                  \n add_3 (Add)                    (None, 8, 8, 64)     0           ['up_sampling2d[0][0]',          \n                                                                  'conv2d_4[0][0]']               \n                                                                                                  \n tf.__operators__.add_4 (TFOpLa  (None, 8, 8, 64)    0           ['tf.__operators__.getitem_4[0][0\n mbda)                                                           ]',                              \n                                                                  'add_3[0][0]']                  \n                                                                                                  \n concatenate (Concatenate)      (None, 8, 8, 192)    0           ['tf.__operators__.add_4[0][0]', \n                                                                  'batch_normalization_6[0][0]']  \n                                                                                                  \n activation_9 (Activation)      (None, 8, 8, 192)    0           ['concatenate[0][0]']            \n                                                                                                  \n conv2d_transpose_2 (Conv2DTran  (None, 8, 8, 32)    55328       ['activation_9[0][0]']           \n spose)                                                                                           \n                                                                                                  \n batch_normalization_9 (BatchNo  (None, 8, 8, 32)    128         ['conv2d_transpose_2[0][0]']     \n rmalization)                                                                                     \n                                                                                                  \n activation_10 (Activation)     (None, 8, 8, 32)     0           ['batch_normalization_9[0][0]']  \n                                                                                                  \n conv2d_transpose_3 (Conv2DTran  (None, 8, 8, 32)    9248        ['activation_10[0][0]']          \n spose)                                                                                           \n                                                                                                  \n batch_normalization_10 (BatchN  (None, 8, 8, 32)    128         ['conv2d_transpose_3[0][0]']     \n ormalization)                                                                                    \n                                                                                                  \n up_sampling2d_3 (UpSampling2D)  (None, 16, 16, 192)  0          ['concatenate[0][0]']            \n                                                                                                  \n dense_5 (Dense)                (None, 32)           2080        ['time_encoding[0][0]']          \n                                                                                                  \n up_sampling2d_2 (UpSampling2D)  (None, 16, 16, 32)  0           ['batch_normalization_10[0][0]'] \n                                                                                                  \n conv2d_5 (Conv2D)              (None, 16, 16, 32)   6176        ['up_sampling2d_3[0][0]']        \n                                                                                                  \n tf.__operators__.getitem_5 (Sl  (None, 1, 1, 32)    0           ['dense_5[0][0]']                \n icingOpLambda)                                                                                   \n                                                                                                  \n add_4 (Add)                    (None, 16, 16, 32)   0           ['up_sampling2d_2[0][0]',        \n                                                                  'conv2d_5[0][0]']               \n                                                                                                  \n tf.__operators__.add_5 (TFOpLa  (None, 16, 16, 32)  0           ['tf.__operators__.getitem_5[0][0\n mbda)                                                           ]',                              \n                                                                  'add_4[0][0]']                  \n                                                                                                  \n concatenate_1 (Concatenate)    (None, 16, 16, 96)   0           ['tf.__operators__.add_5[0][0]', \n                                                                  'batch_normalization_4[0][0]']  \n                                                                                                  \n activation_11 (Activation)     (None, 16, 16, 96)   0           ['concatenate_1[0][0]']          \n                                                                                                  \n conv2d_transpose_4 (Conv2DTran  (None, 16, 16, 16)  13840       ['activation_11[0][0]']          \n spose)                                                                                           \n                                                                                                  \n batch_normalization_11 (BatchN  (None, 16, 16, 16)  64          ['conv2d_transpose_4[0][0]']     \n ormalization)                                                                                    \n                                                                                                  \n activation_12 (Activation)     (None, 16, 16, 16)   0           ['batch_normalization_11[0][0]'] \n                                                                                                  \n conv2d_transpose_5 (Conv2DTran  (None, 16, 16, 16)  2320        ['activation_12[0][0]']          \n spose)                                                                                           \n                                                                                                  \n batch_normalization_12 (BatchN  (None, 16, 16, 16)  64          ['conv2d_transpose_5[0][0]']     \n ormalization)                                                                                    \n                                                                                                  \n up_sampling2d_5 (UpSampling2D)  (None, 32, 32, 96)  0           ['concatenate_1[0][0]']          \n                                                                                                  \n dense_6 (Dense)                (None, 16)           1040        ['time_encoding[0][0]']          \n                                                                                                  \n up_sampling2d_4 (UpSampling2D)  (None, 32, 32, 16)  0           ['batch_normalization_12[0][0]'] \n                                                                                                  \n conv2d_6 (Conv2D)              (None, 32, 32, 16)   1552        ['up_sampling2d_5[0][0]']        \n                                                                                                  \n tf.__operators__.getitem_6 (Sl  (None, 1, 1, 16)    0           ['dense_6[0][0]']                \n icingOpLambda)                                                                                   \n                                                                                                  \n add_5 (Add)                    (None, 32, 32, 16)   0           ['up_sampling2d_4[0][0]',        \n                                                                  'conv2d_6[0][0]']               \n                                                                                                  \n tf.__operators__.add_6 (TFOpLa  (None, 32, 32, 16)  0           ['tf.__operators__.getitem_6[0][0\n mbda)                                                           ]',                              \n                                                                  'add_5[0][0]']                  \n                                                                                                  \n concatenate_2 (Concatenate)    (None, 32, 32, 48)   0           ['tf.__operators__.add_6[0][0]', \n                                                                  'batch_normalization_2[0][0]']  \n                                                                                                  \n conv2d_7 (Conv2D)              (None, 32, 32, 1)    433         ['concatenate_2[0][0]']          \n                                                                                                  \n tf.__operators__.getitem_7 (Sl  (None, 28, 28, 1)   0           ['conv2d_7[0][0]']               \n icingOpLambda)                                                                                   \n                                                                                                  \n==================================================================================================\nTotal params: 280,369\nTrainable params: 278,993\nNon-
…
UntypedStorage will be the only storage class. This should only matter to you if you are using storages directly.  To access UntypedStorage directly, use tensor.untyped_storage() instead of tensor.storage()\n  return super().__sizeof__() + self.nbytes()\n\n\n====================================================================================================\nLayer (type:depth-idx)                             Output Shape              Param #\n====================================================================================================\nAutoencoderKL                                      [1, 3, 512, 512]          --\n├─Encoder: 1-1                                     [1, 8, 64, 64]            --\n│    └─Conv2d: 2-1                                 [1, 128, 512, 512]        3,584\n│    └─ModuleList: 2-2                             --                        --\n│    │    └─DownEncoderBlock2D: 3-1                [1, 128, 256, 256]        738,944\n│    │    └─DownEncoderBlock2D: 3-2                [1, 256, 128, 128]        2,690,304\n│    │    └─DownEncoderBlock2D: 3-3                [1, 512, 64, 64]          10,754,560\n│    │    └─DownEncoderBlock2D: 3-4                [1, 512, 64, 64]          9,443,328\n│    └─UNetMidBlock2D: 2-3                         [1, 512, 64, 64]          --\n│    │    └─ModuleList: 3-7                        --                        (recursive)\n│    │    └─ModuleList: 3-6                        --                        1,051,648\n│    │    └─ModuleList: 3-7                        --                        (recursive)\n│    └─GroupNorm: 2-4                              [1, 512, 64, 64]          1,024\n│    └─SiLU: 2-5                                   [1, 512, 64, 64]          --\n│    └─Conv2d: 2-6                                 [1, 8, 64, 64]            36,872\n├─Conv2d: 1-2                                      [1, 8, 64, 64]            72\n├─Conv2d: 1-3                                      [1, 4, 64, 64]            20\n├─Decoder: 1-4                                     [1, 3, 512, 512]          --\n│    └─Conv2d: 2-7                                 [1, 512, 64, 64]          18,944\n│    └─UNetMidBlock2D: 2-8                         [1, 512, 64, 64]          --\n│    │    └─ModuleList: 3-10                       --                        (recursive)\n│    │    └─ModuleList: 3-9                        --                        1,051,648\n│    │    └─ModuleList: 3-10                       --                        (recursive)\n│    └─ModuleList: 2-9                             --                        --\n│    │    └─UpDecoderBlock2D: 3-11                 [1, 512, 128, 128]        16,524,800\n│    │    └─UpDecoderBlock2D: 3-12                 [1, 512, 256, 256]        16,524,800\n│    │    └─UpDecoderBlock2D: 3-13                 [1, 256, 512, 512]        4,855,296\n│    │    └─UpDecoderBlock2D: 3-14                 [1, 128, 512, 512]        1,067,648\n│    └─GroupNorm: 2-10                             [1, 128, 512, 512]        256\n│    └─SiLU: 2-11                                  [1, 128, 512, 512]        --\n│    └─Conv2d: 2-12                                [1, 3, 512, 512]          3,459\n====================================================================================================\nTotal params: 83,653,863\nTrainable params: 83,653,863\nNon-trainable params: 0\nTotal mult-adds (T): 1.77\n====================================================================================================\nInput size (MB): 3.15\nForward/backward pass size (MB): 12640.19\nParams size (MB): 33
…
'UNet2DConditionModel'),\n            ('_diffusers_version', '0.2.2'),\n            ('_name_or_path', 'CompVis/stable-diffusion-v1-4')])\n\n\n\nsummary(unet, [(1, 4, 64, 64), (1,), (1, 77, 768)])\n\n===================================================================================================================\nLayer (type:depth-idx)                                            Output Shape              Param #\n===================================================================================================================\nUNet2DConditionModel                                              [1, 4, 64, 64]            --\n├─Timesteps: 1-1                                                  [1, 320]                  --\n├─TimestepEmbedding: 1-2                                          [1, 1280]                 --\n│    └─Linear: 2-1                                                [1, 1280]                 410,880\n│    └─SiLU: 2-2                                                  [1, 1280]                 --\n│    └─Linear: 2-3                                                [1, 1280]                 1,639,680\n├─Conv2d: 1-3                                                     [1, 320, 64, 64]          11,840\n├─ModuleList: 1-4                                                 --                        --\n│    └─CrossAttnDownBlock2D: 2-4                                  [1, 320, 32, 32]          --\n│    │    └─ModuleList: 3-3                                       --                        (recursive)\n│    │    └─ModuleList: 3-4                                       --                        (recursive)\n│    │    └─ModuleList: 3-3                                       --                        (recursive)\n│    │    └─ModuleList: 3-4                                       --                        (recursive)\n│    │    └─ModuleList: 3-5                                       --                        921,920\n│    └─CrossAttnDownBlock2D: 2-5                                  [1, 640, 16, 16]          --\n│    │    └─ModuleList: 3-8                                       --                        (recursive)\n│    │    └─ModuleList: 3-9                                       --                        (recursive)\n│    │    └─ModuleList: 3-8                                       --                        (recursive)\n│    │    └─ModuleList: 3-9                                       --                        (recursive)\n│    │    └─ModuleList: 3-10                                      --                        3,687,040\n│    └─CrossAttnDownBlock2D: 2-6                                  [1, 1280, 8, 8]           --\n│    │    └─ModuleList: 3-13                                      --                        (recursive)\n│    │    └─ModuleList: 3-14                                      --                        (recursive)\n│    │    └─ModuleList: 3-13                                      --                        (recursive)\n│    │    └─ModuleList: 3-14                                      --                        (recursive)\n│    │    └─ModuleList: 3-15                                      --                        14,746,880\n│    └─DownBlock2D: 2-7                                           [1, 1280, 8, 8]           --\n│    │    └─ModuleList: 3-16                                      --                        62,277,120\n├─UNetMidBlock2DCrossAttn: 1-5                                    [1, 1280, 8, 8]           --\n│    └─ModuleList: 2-10                                           --                        (recursive)\n│    │    └─ResnetBlock2D: 3-17                                   [1, 1280, 8, 8]           31,138,560\n│    └─ModuleList: 2-9                                            --                        --\n│    │    └─Transformer2DModel: 3-18                              [1, 1280, 8, 8]           34,760,960\n│    └─ModuleList: 2-10                                           --                        (recursive)\n│    │    └─ResnetBlock2D: 3-19                                   [1, 1280, 8, 8]           31,138,560\n├─ModuleList: 1-6                                                 --                        --\n│    └─UpBlock2D: 2-11                                            [1, 1280, 16, 16]         --\n│    │    └─ModuleList: 3-20                                      --                        147,494,400\n│    │    └─ModuleList: 3-21                                      --                        14,746,880\n│    └─CrossAttnUpBlock2D: 2-12                                   [1, 1280, 32, 32]         --\n│    │    └─ModuleList: 3-26                                      --                        (recursive)\n│    │    └─ModuleList: 3-27                                      --                        (recursive)\n│    │    └─ModuleList: 3-26                                      --                        (recursive)\n│    │    └─ModuleList: 3-27                                      --                        (recursive)\n│    │    └─ModuleList: 3-26                                      --                        (recursive)\n│    │    └─ModuleList: 3-27                                      --                        (recursive)\n│    │    └─ModuleList: 3-28                                      --                        14,746,880\n│    └─CrossAttnUpBlock2D: 2-13                                   [1, 640, 64, 64]          --\n│    │    └─ModuleList: 3-33                                      --                        (recursive)\n│    │    └─ModuleList: 3-34                                      --                        (recursive)\n│    │    └─ModuleList: 3-33                                      --                        (recursive)\n│    │    └─ModuleList: 3-34                                      --                        (recursive)\n│    │    └─ModuleList: 3-33                                      --                        (recursive)\n│    │    └─ModuleList: 3-34                                      --                        (recursive)\n│    │    └─ModuleList: 3-35                                      --                        3,687,040\n│    └─CrossAttnUpBlock2D: 2-14                                   [1, 320, 64, 64]          --\n│    │    └─ModuleList: 3-40                                      --                        (recursive)\n│    │    └─ModuleList: 3-41                                      --                        (recursive)\n│    │    └─ModuleList: 3-40                                      --                        (recursive)\n│    │    └─ModuleList: 3-41                                      --                        (recursive)\n│    │    └─ModuleList: 3-40                                      --                        (recursive)\n│    │    └─ModuleList: 3-41                                      --                        (recursive)\n├─GroupNorm: 1-7                                                  [1, 320, 64, 64]          640\n├─SiLU: 1-8                                                       [1, 320, 64, 64]          --\n├─Conv2d: 1-9                                                     [1, 4, 64, 64]            11,524\n===================================================================================================================\nTotal params: 859,520,964\nTrainable params: 859,520,964\nNon-trainable params: 0\nTotal mult-adds (G): 222.30\n===================================================================================================================\nInput size (MB): 0.30\nForward/backward pass size (M
…
of layers and filters in the search space. It is possible to find a smaller architecture with comparableb performance to the CNN we constructed here.\n\nbest_model = auto_model.export_model()\nbest_model.summary()\n\nModel: \"model\"\n_________________________________________________________________\n Layer (type)                Output Shape              Param #   \n=================================================================\n input_1 (InputLayer)        [(None, 28, 28)]          0         \n                                                                 \n cast_to_float32 (CastToFloa  (None, 28, 28)           0         \n t32)                                                            \n                                                                 \n expand_last_dim (ExpandLast  (None, 28, 28, 1)        0         \n Dim)                                                            \n                                                                 \n normalization (Normalizatio  (None, 28, 28, 1)        3         \n n)                                                              \n                                                                 \n conv2d (Conv2D)             (None, 24, 24, 256)       6656      \n                                                                 \n conv2d_1 (Conv2D)           (None, 20, 20, 16)        102416    \n                                                                 \n max_pooling2d (MaxPooling2D  (None, 5, 5, 16)         0         \n )                                                               \n                                                                 \n conv2d_2 (Conv2D)           (None, 5, 5, 32)          12832     \n                                                                 \n conv2d_3 (Conv2D)           (None, 5, 5, 128)         102528    \n                                                                 \n max_pooling2d_1 (MaxPooling  (None, 2, 2, 128)        0         \n 2D)                                                             \n                                                                 \n flatten (Flatten)           (None, 512)               0         \n                                                                 \n dense (Dense)               (None, 10)                5130      \n                                                                 \n classification_head_1 (Soft  (None, 10)               0         \n max)                                                            \n                                                                 \n=================================================================\nTotal params: 229,565\nTrainable params: 229,562\nNon-trainable params: 3\n_________________________________________________________________\n\n\n\n\n13.4.2 Automated pipeline search with 
…
tor: 0.1\nimage_block_1/image_augmentation_1/zoom_factor: 0.0\nimage_block_1/image_augmentation_1/contrast_factor: 0.1\nScore: 0.5242509245872498\n\n\n\nbest_model = auto_model.export_model()\nbest_model.summary()\n\nModel: \"model\"\n_________________________________________________________________\n Layer (type)                Output Shape              Param #   \n=================================================================\n input_1 (InputLayer)        [(None, 32, 32, 3)]       0         \n                                                                 \n cast_to_float32 (CastToFloa  (None, 32, 32, 3)        0         \n t32)                                                            \n                                                                 \n random_translation (RandomT  (None, 32, 32, 3)        0         \n ranslation)                                                     \n                                                                 \n random_flip (RandomFlip)    (None, 32, 32, 3)         0         \n                                                                 \n random_rotation (RandomRota  (None, 32, 32, 3)        0         \n tion)                                                           \n                                                                 \n random_contrast (RandomCont  (None, 32, 32, 3)        0         \n rast)                                                           \n                                                                 \n resnet50v2 (Functional)     (None, 1, 1, 2048)        23564800  \n                                                                 \n global_max_pooling2d (Globa  (None, 2048)             0         \n lMaxPooling2D)                                                  \n                                                                 \n dense (Dense)               (None, 1)                 2049      \n                                                                 \n classification_head_1 (Acti  (None, 1)                0         \n vation)                                                         \n                                                                 \n=================================================================\nTotal params: 23,566,849\nTrainable params: 23,521,409\nNon-trainable params: 45,440\n_________________________________________________________________\n\n\n\ntest_loss, test_acc = auto_model.evaluate(x_test, y_test, verbose=0)\nprint(\"Accuracy: {accuracy}%\".format(accuracy=round(test_acc * 100, 2)))\n\nAccuracy: 84.55%\n\n\nFor more information, please refer to https://autokeras.com/"
…
5507-y7peyypu\n\n\nSyncing run cool-spaceship-1 to Weights & Biases (docs)\n\n\n View project at https://wandb.ai/phonchi/my-keras-project\n\n\n View run at https://wandb.ai/phonchi/my-keras-project/runs/y7peyypu\n\n\nModel: \"model\"\n_________________________________________________________________\n Layer (type)                Output Shape              Param #   \n=================================================================\n input_1 (InputLayer)        [(None, 32, 32, 3)]       0         \n                                                                 \n conv2d (Conv2D)             (None, 30, 30, 32)        896       \n                                                                 \n conv2d_1 (Conv2D)           (None, 28, 28, 32)        9248      \n                                                                 \n max_pooling2d (MaxPooling2D  (None, 14, 14, 32)       0         \n )                                                               \n                                                                 \n conv2d_2 (Conv2D)           (None, 12, 12, 32)        9248      \n                                                                 \n conv2d_3 (Conv2D)           (None, 10, 10, 32)        9248      \n                                                                 \n global_average_pooling2d (G  (None, 32)               0         \n lobalAveragePooling2D)                                          \n                                                                 \n dense (Dense)               (None, 128)               4224      \n                                                                 \n dense_1 (Dense)             (None, 32)                4128      \n                                                                 \n dense_2 (Dense)             (None, 10)                330       \n                                                                 \n=================================================================\nTotal params: 37,322\nTrainable params: 37,322\nNon-trainable params: 0\n_________________________________________________________________\n\n\n\n\n13.5.1.2 Pass WandbMetricsLogger and WandbModelCheckpoint to model.fit()\nKeras has a robust callbacks system
…
ng data from https://storage.googleapis.com/tensorflow/keras-applications/mobilenet_v2/mobilenet_v2_weights_tf_dim_ordering_tf_kernels_1.0_224_no_top.h5\n9406464/9406464 [==============================] - 0s 0us/step\nModel: \"model\"\n_________________________________________________________________\n Layer (type)                Output Shape              Param #   \n=================================================================\n input_2 (InputLayer)        [(None, 28, 28, 1)]       0         \n                                                                 \n resizing (Resizing)         (None, 32, 32, 1)         0         \n                                                                 \n conv2d (Conv2D)             (None, 32, 32, 3)         30        \n                                                                 \n tf.math.truediv (TFOpLambda  (None, 32, 32, 3)        0         \n )                                                               \n                                                                 \n tf.math.subtract (TFOpLambd  (None, 32, 32, 3)        0         \n a)                                                              \n                                                                 \n mobilenetv2_1.00_224 (Funct  (None, None, None, 1280)  2257984  \n ional)                                                          \n                                                                 \n global_average_pooling2d (G  (None, 1280)             0         \n lobalAveragePooling2D)                                          \n                                                                 \n dense (Dense)               (None, 10)                12810     \n                                                                 \n=================================================================\nTotal params: 2,270,824\nTrainable params: 12,840\nNon-trainable params: 2,257,984\n_________________________________________________________________\n\n\n\nmodel.compile(\n    optimizer = \"adam\",\n    loss = \"categorical_crossentropy\",\n    metrics = [\"
…
e=(2, 2)),\n        tf.keras.layers.Conv2D(64, kernel_size=(3, 3), activation=\"relu\"),\n        tf.keras.layers.MaxPooling2D(pool_size=(2, 2)),\n        tf.keras.layers.Flatten(),\n        tf.keras.layers.Dropout(dropout),\n        tf.keras.layers.Dense(num_classes, activation=\"softmax\"),\n    ]\n)\n\nmodel = ConvNet()\n\nmodel.summary()\n\nModel: \"sequential\"\n_________________________________________________________________\n Layer (type)                Output Shape              Param #   \n=================================================================\n conv2d (Conv2D)             (None, 26, 26, 32)        320       \n                                                                 \n max_pooling2d (MaxPooling2D  (None, 13, 13, 32)       0         \n )                                                               \n                                                                 \n conv2d_1 (Conv2D)           (None, 11, 11, 64)        18496     \n                                                                 \n max_pooling2d_1 (MaxPooling  (None, 5, 5, 64)         0         \n 2D)                                                             \n                                                                 \n flatten (Flatten)           (None, 1600)              0         \n                                                                 \n dropout (Dropout)           (None, 1600)              0         \n                                                                 \n dense (Dense)               (None, 10)                16010     \n                                                                 \n=================================================================\nTotal params: 34,826\nTrainable params: 34,826\nNon-trainable params: 0\n_________________________________________________________________\n\n\nThe training script is as follows:\n\ndef get_optimizer(lr=1e-3, optimizer=\"adam\"):\n    \"Select optmizer betwee
…
e summary ends with the total number of parameters, including trainable and non-trainable parameters. Here we only have trainable parameters. Since we have not specified the shape of input in the model definition, you should specify the input shape.\n\nsummary(model, input_size=(32, 1, 28, 28))\n\n==========================================================================================\nLayer (type:depth-idx)                   Output Shape              Param #\n==========================================================================================\nSequential                               [32, 10]                  --\n├─Flatten: 1-1                           [32, 784]                 --\n├─Linear: 1-2                            [32, 300]                 235,500\n├─ReLU: 1-3                              [32, 300]                 --\n├─Linear: 1-4                            [32, 100]                 30,100\n├─ReLU: 1-5                              [32, 100]                 --\n├─Linear: 1-6                            [32, 10]                  1,010\n==========================================================================================\nTotal params: 266,610\nTrainable params: 266,610\nNon-trainable params: 0\nTotal mult-adds (M): 8.53\n==========================================================================================\nInput size (MB): 0.10\nForward/backward pass size (MB): 0.10\nParams size (MB): 1.07\nEstimated Total Size (MB):
…
d. It will be removed in the future and UntypedStorage will be the only storage class. This should only matter to you if you are using storages directly.  To access UntypedStorage directly, use tensor.untyped_storage() instead of tensor.storage()\n  return super().__sizeof__() + self.nbytes()\n\n\n==========================================================================================\nLayer (type:depth-idx)                   Output Shape              Param #\n==========================================================================================\nSequential                               [32, 10]                  --\n├─Flatten: 1-1                           [32, 784]                 --\n├─Linear: 1-2                            [32, 300]                 235,500\n├─BatchNorm1d: 1-3                       [32, 300]                 600\n├─PReLU: 1-4                             [32, 300]                 300\n├─Dropout: 1-5                           [32, 300]                 --\n├─Linear: 1-6                            [32, 100]                 30,100\n├─BatchNorm1d: 1-7                       [32, 100]                 200\n├─PReLU: 1-8                             [32, 100]                 100\n├─Dropout: 1-9                           [32, 100]                 --\n├─Linear: 1-10                           [32, 10]                  1,010\n├─LogSoftmax: 1-11                       [32, 10]                  --\n==========================================================================================\nTotal params: 267,810\nTrainable params: 267,810\nNon-trainable params: 0\nTotal mult-adds (M): 8.57\n==========================================================================================\nInput size (MB): 0.10\nForward/backward pass size (MB): 0.31\nParams size (MB): 1.07\nEstimated Total Size (MB):
…
5),\n    torch.nn.Linear(32, 10)\n)\n\n\n# Use He initialization for the convolutional layers and the linear layer\nfor m in model.modules():\n    if isinstance(m, nn.Conv2d) or isinstance(m, nn.Linear):\n        nn.init.kaiming_uniform_(m.weight)\n\n\nsummary(model, input_size=(32, 1, 28, 28))\n\n==========================================================================================\nLayer (type:depth-idx)                   Output Shape              Param #\n==========================================================================================\nSequential                               [32, 10]                  --\n├─Conv2d: 1-1                            [32, 32, 28, 28]          1,600\n├─ReLU: 1-2                              [32, 32, 28, 28]          --\n├─MaxPool2d: 1-3                         [32, 32, 14, 14]          --\n├─Conv2d: 1-4                            [32, 64, 14, 14]          18,496\n├─ReLU: 1-5                              [32, 64, 14, 14]          --\n├─Conv2d: 1-6                            [32, 64, 14, 14]          36,928\n├─ReLU: 1-7                              [32, 64, 14, 14]          --\n├─MaxPool2d: 1-8                         [32, 64, 7, 7]            --\n├─Conv2d: 1-9                            [32, 128, 7, 7]           73,856\n├─ReLU: 1-10                             [32, 128, 7, 7]           --\n├─Conv2d: 1-11                           [32, 128, 7, 7]           147,584\n├─ReLU: 1-12                             [32, 128, 7, 7]           --\n├─MaxPool2d: 1-13                        [32, 128, 3, 3]           --\n├─Flatten: 1-14                          [32, 1152]                --\n├─Linear: 1-15                           [32, 64]                  73,792\n├─ReLU: 1-16                             [32, 64]                  --\n├─Dropout: 1-17                          [32, 64]                  --\n├─Linear: 1-18                           [32, 32]                  2,080\n├─ReLU: 1-19                             [32, 32]                  --\n├─Dropout: 1-20                          [32, 32]                  --\n├─Linear: 1-21                           [32, 10]                  330\n==========================================================================================\nTotal params: 354,666\nTrainable params: 354,666\nNon-trainable params: 0\nTotal mult-adds (M): 737.42\n==========================================================================================\nInput size (MB): 0.10\nForward/backward pass size (MB): 16.08\nParams size (MB): 1.42\nEstimated Total Size (M
…
d. It will be removed in the future and UntypedStorage will be the only storage class. This should only matter to you if you are using storages directly.  To access UntypedStorage directly, use tensor.untyped_storage() instead of tensor.storage()\n  return super().__sizeof__() + self.nbytes()\n\n\n==========================================================================================\nLayer (type:depth-idx)                   Output Shape              Param #\n==========================================================================================\nCustomModel                              [32, 1]                   --\n├─Sequential: 1-1                        [32, 32, 89, 89]          --\n│    └─Conv2d: 2-1                       [32, 32, 178, 178]        896\n│    └─ReLU: 2-2                         [32, 32, 178, 178]        --\n│    └─MaxPool2d: 2-3                    [32, 32, 89, 89]          --\n├─Sequential: 1-2                        [32, 64, 43, 43]          --\n│    └─Conv2d: 2-4                       [32, 64, 87, 87]          18,496\n│    └─ReLU: 2-5                         [32, 64, 87, 87]          --\n│    └─MaxPool2d: 2-6                    [32, 64, 43, 43]          --\n├─Sequential: 1-3                        [32, 128, 20, 20]         --\n│    └─Conv2d: 2-7                       [32, 128, 41, 41]         73,856\n│    └─ReLU: 2-8                         [32, 128, 41, 41]         --\n│    └─MaxPool2d: 2-9                    [32, 128, 20, 20]         --\n├─Sequential: 1-4                        [32, 256, 9, 9]           --\n│    └─Conv2d: 2-10                      [32, 256, 18, 18]         295,168\n│    └─ReLU: 2-11                        [32, 256, 18, 18]         --\n│    └─MaxPool2d: 2-12                   [32, 256, 9, 9]           --\n├─Sequential: 1-5                        [32, 256, 7, 7]           --\n│    └─Conv2d: 2-13                      [32, 256, 7, 7]           590,080\n│    └─ReLU: 2-14                        [32, 256, 7, 7]           --\n├─Flatten: 1-6                           [32, 12544]               --\n├─Sequential: 1-7                        [32, 1]                   --\n│    └─Linear: 2-15                      [32, 1]                   12,545\n│    └─Sigmoid: 2-16                     [32, 1]                   --\n==========================================================================================\nTotal params: 991,041\nTrainable params: 991,041\nNon-trainable params: 0\nTotal mult-adds (G): 13.35\n==========================================================================================\nInput size (MB): 12.44\nForward/backward pass size (MB): 463.09\nParams size (MB): 3.96\nEstimated Total Size (
…
